Vanilla DQN/DQNcheckpoint.pth (torch_old, 28417 bytes, 6 tensors)

fc1.weight f4 [64, 37]
-0.008342566 0.105885796 -0.24583356 -0.13683309 -0.08511242 0.06554991 -0.012899584 0.07214877
-0.047653783 -0.19224866 0.052282766 -0.065808214 -0.3034735 -0.10380076 -0.1314856 0.0034530584
0.069607966 0.10585136 -0.12290985 0.0051811263 0.19374181 0.08287198 0.0075315274 -0.051124983
-0.084172435 0.006583702 0.14549124 -0.067759484 -0.36274004 -0.06906304 -0.0023175876 0.03103426
0.08250145 -0.20990035 -0.15272784 -0.074377105 -0.091017455 0.16084254 0.14889656 -0.01920754
0.01048102 -0.19571903 0.13631216 -0.25963372 -0.15042986 -0.12901469 -0.37788913 0.018784564
-0.10648958 0.10115818 0.25928792 0.21172473 0.045300722 -0.08211346 0.17955919 0.019919338
-0.06763799 -0.03827361 -0.10554012 -0.17239748 0.046871416 0.07324032 -0.10997757 0.15606716
0.14973521 -0.18593524 -0.09822078 -0.020021109 0.25237107 0.16858615 -0.073781215 0.17312288
0.095386304 0.051557176 0.137475 0.13830729 0.12561008 -0.041388746 -0.016251652 -0.28437203
0.007910009 0.31094334 0.052050103 -0.060679026 0.03696719 0.085590236 -0.023074575 0.026136553
0.072944246 -0.14994001 0.1744133 0.1651971 0.13887241 0.21940075 -0.12113902 -0.05712924
0.076594844 0.04645954 0.02922059 -0.24187952 0.16339213 0.28945878 0.0020466151 -0.16744065
-0.23547092 0.08650211 -0.020427063 -0.05186856 -0.03717723 0.047594424 -0.0024100088 0.13450474
-0.03648582 0.17151996 0.08974872 -0.23243982 -0.05100485 -0.043308765 0.15130249 0.09222172
-0.1818431 -0.031613704 0.10841406 0.09586494 -0.04114716 0.019343453 -0.061193958 -0.0090484
0.06955639 -0.29136497 -0.1468787 0.083792605 0.0019085528 0.13738856 -0.071608715 -0.12588632
-0.050073795 0.018456997 0.20597556 0.066262506 0.10126199 0.2722533 0.009526992 -0.04689198
-0.20856622 -0.9004887 0.02445152 -0.005238067 -0.013746853 -0.24596232 -0.17781092 -0.32260257
0.034105625 0.09829804 0.07302573 -0.17383137 -0.12530999 -0.2695462 0.07336416 -0.1553679
-0.11922779 -0.26468843 -0.39163655 -0.074723355 -0.1024544 -0.20062135 0.030514449 0.03327257
-0.020856412 -0.15495726 -0.020302562 -0.08843569 -0.08520179 0.061757915 -0.21420436 0.05796424
-0.03502704 -0.27508992 0.12012267 -0.19233531 0.0001668068 -0.09991298 0.04658378 -0.07113622
0.06467427 -0.010016697 -0.040103674 0.0022198036 -0.1444243 0.19981964 0.14181769 0.2036167
-0.08829584 -0.2262651 -0.34769452 -0.24299024 -0.034731537 0.0037731985 0.04062525 0.11410435
-0.071318775 0.17210938 -0.15301658 -0.06837766 0.029903168 0.13448557 -0.08811746 0.057506084
0.060455285 0.059553117 -0.060528234 -0.029045658 0.018641025 -0.0005225648 0.03604766 0.015658453
-0.06122222 -0.19174433 0.2073622 -0.43025476 -0.015636565 0.047264267 -0.12679674 0.026346197
-0.00015437264 0.021095665 -0.10320558 0.04632259 -0.19161429 -0.010605439 -0.09331635 0.25560293
-0.070219636 0.09980146 0.17448191 -0.09215866 0.17232278 -0.15993847 -0.079347 0.045869734
0.05208884 0.03456709 -0.040235676 -0.1034687 0.060990166 -0.11504115 0.22775017 -0.22979027
-0.05585965 0.009570299 0.051205855 -0.081790134 0.16812971 -0.23961315 -0.05999464 0.009180109
00000000: 42af 08bc a7da d83d cbbb 7bbe f91d 0cbe
00000010: 6c4f aebd 083f 863d c758 53bc bcc2 933d
00000020: 9d30 43bd d5dc 44be 7426 563d 75c6 86bd
00000030: e160 9bbe 7e95 d4bd 29a4 06be b54c 623b
00000040: 9f8e 8e3d 99c8 d83d 29b8 fbbd 70c6 a93b
00000050: 4164 463e c9b8 a93d 08cb f63b 6e68 51bd
00000060: 9962 acbd 18bc d73b a8fb 143e 7cc5 8abd
00000070: 10b9 b9be ec70 8dbd abe2 17bb 8f3b fe3c
00000080: 85f6 a83d 1ef0 56be b064 1cbe 0653 98bd
00000090: 5c67 babd e8b3 243e 5778 183e 2259 9dbc
000000a0: 96b8 2b3c 926a 48be 6a95 0b3e b6ee 84be
000000b0: 490a 1abe 6d1c 04be af7a c1be 16e2 993c
000000c0: 3517 dabd 052c cf3d 63c1 843e 5ece 583e
000000d0: 408d 393d 1a2b a8bd 5dde 373e e12d a33c
000000e0: c985 8abd cac4 1cbd 6b25 d8bd f788 30be
000000f0: 3efc 3f3d 05ff 953d ec3b e1bd 12d0 1f3e
00000100: 3054 193e cf65 3ebe fa27 c9bd 4f03 a4bc
00000110: c836 813e d9a1 2c3e 9b1a 97bd 2047 313e
00000120: e559 c33d 9e2d 533d 3fc6 0c3e 6da0 0d3e
00000130: ee9f 003e 3f87 29bd 2f22 85bc 3699 91be
00000140: fb98 013c f733 9f3e 7d32 553d 928a 78bd
00000150: e96a 173d ef49 af3d e406 bdbc 531c d63c
00000160: cb63 953d e089 19be 6699 323e 6e29 293e
00000170: 9234 0e3e 97aa 603e bc17 f8bd 5a00 6abd
00000180: c2dd 9c3d 5c4c 3e3d 0560 ef3c 44af 77be
00000190: 4450 273e f133 943e 8120 063b 9075 2bbe
000001a0: 4a1f 71be 0528 b13d a856 a7bc 2174 54bd
000001b0: 2747 18bd 5ff2 423d 3df1 1dbb 9cbb 093e
000001c0: 2872 15bd eea2 2f3e 2dce b73d b404 6ebe
000001d0: 76ea 50bd 8864 31bd 0aef 1a3e bede bc3d
000001e0: 1435 3abe 5f7d 01bd 3108 de3d d654 c43d
000001f0: ed89 28bd 2976 9e3c 84a6 7abd be3f 14bc
00000200: 9573 8e3d ca2d 95be 5f67 16be 759b ab3d
00000210: 6828 fa3a 96af 0c3e 97a7 92bd 58e8 00be
00000220: 2e1a 4dbd 2133 973c 42eb 523e a3b4 873d
00000230: 7262 cf3d c964 8b3e 1a17 1c3c ce11 40bd
00000240: 6292 55be 6d86 66bf 8e4e c83c 17a4 abbb
00000250: 7b3a 61bc 8cdd 7bbe 1114 36be 2a2c a5be
00000260: 57b2 0b3d 7c50 c93d 848e 953d da00 32be
00000270: 4351 00be f601 8abe f33f 963d c318 1fbe
00000280: b32d f4bd 3e85 87be 9684 c8be 8f08 99bd
00000290: 9dd3 d1bd af6f 4dbe 70f9 f93c d248 083d
000002a0: 11db aabc 1ead 1ebe 8f51 a6bc c51d b5bd
000002b0: 477e aebd def5 7c3d 6358 5bbe e96b 6d3d
000002c0: 8378 0fbd 96d8 8cbe e002 f63d 8cf3 44be
000002d0: dce8 2e39 2d9f ccbd a2ce 3e3d deaf 91bd
000002e0: f273 843d 131d 24bc c043 24bd 207a 113b
000002f0: f7e3 13be 859d 4c3e a838 113e e580 503e
00000300: 73d4 b4bd 0ab2 67be 0405 b2be 6fd2 78be
00000310: a842 0ebd c447 773b aa66 263d 8baf e93d
00000320: 940f 92bd 713d 303e 61b0 1cbe 9609 8cbd
00000330: 7df7 f43c 96b6 093e ed76 b4bd 808b 6b3d
00000340: f69f 773d f8ed 733d 74ec 77bd 29f1 edbc
00000350: 10b5 983c bbfc 08ba b6a6 133d 2846 803c
00000360: 27c4 7abd a058 44be c256 543e 5a4a dcbe
00000370: 4118 80bc 2d98 413d 01d7 01be fbd3 d73c
00000380: 17df 21b9 d1d0 ac3c 725d d3bd c2bc 3d3d
00000390: 8936 44be 6fc2 2dbc a41c bfbd 63de 823e
000003a0: 50cf 8fbd b564 cc3d 63ab 323e aebd bcbd
000003b0: 6275 303e e9c6 23be ae80 a2bd e7e1 3b3d
000003c0: 1c5b 553d 3996 0d3d 2ace 24bd 66e7 d3bd
000003d0: d3d0 793d b29a ebbd 5737 693e 244e 6bbe
000003e0: 17cd 64bd becc 1c3c 3bbd 513d 9681 a7bd
000003f0: 322a 2c3e 265d 75be f1bc 75bd 2b68 163c

fc1.bias f4 [64]
0.15277578 -0.017713523 -0.12269317 0.0005113747 0.11821232 -0.06614408 -0.107752785 0.07915214
0.034607414 -0.16620517 0.1379796 0.15579616 0.20069791 0.12574129 -0.058425944 -0.026003644
0.041334216 0.014608129 0.07340481 -0.16089465 -0.1050554 0.06369264 0.027122637 -0.11449172
-0.12904538 0.0772626 -0.05253366 -0.24707228 0.13886556 0.118145645 -0.09651049 -0.14560826
0.1303209 -0.002984575 -0.084813416 0.023980863 -0.041075237 0.032069344 -0.022755122 -0.12518935
-0.033306815 0.010158708 -0.17105533 0.13219383 0.025227107 -0.028135601 0.073391065 -0.16251324
-0.11533172 0.02514069 -0.14696772 0.118719116 -0.03148074 -0.045882728 -0.18081926 0.013958964
0.10220126 -0.09067191 -0.11653088 -0.038450103 -0.0051133526 0.075021215 0.059421476 0.05389733
00000000: 4171 1c3e f31b 91bc 8f46 fbbd c60d 063a
00000010: 4d19 f23d 8c76 87bd 7ead dcbd 841a a23d
00000020: 81c0 0d3d b031 2abe 864a 0d3e 0789 1f3e
00000030: c183 4d3e 53c2 003e 0b50 6fbd 9805 d5bc
00000040: 114e 293d ef56 6f3c 4355 963d 91c1 24be
00000050: 4927 d7bd 4971 823d 4b30 de3c a37a eabd
00000060: 7924 04be db3b 9e3d 892d 57bd 8400 7dbe
00000070: c632 0e3e 58f6 f13d 4ba7 c5bd 551a 15be
00000080: d872 053e dc98 43bb a8b2 adbd 8473 c43c
00000090: 823e 28bd 255b 033d f368 babc a331 00be
000000a0: ba6c 08bd b670 263c 2129 2fbe d25d 073e
000000b0: 14a9 ce3c a27c e6bc 0e4e 963d df69 26be
000000c0: 0933 ecbd d9f3 cd3c b57e 16be 0223 f33d
000000d0: f3f1 00bd 87ef 3bbd af28 39be 23b4 643c
000000e0: e54e d13d 32b2 b9bd bea7 eebd db7d 1dbd
000000f0: e98d a7bb b9a4 993d ef63 733d 72c3 5c3d

fc2.weight f4 [64, 64]
-0.013520845 0.122951716 0.046402156 0.17557818 0.18885632 0.0005454575 -0.0038632748 -0.14421883
0.064523965 0.004164346 -0.09883969 0.10087839 -0.18555407 0.09292618 -0.21991369 -0.1205275
-0.08925206 -0.26428854 -0.08374515 -0.033986434 -0.015380107 -0.08942001 0.21279204 0.01350255
-0.26556173 -0.034832977 0.21376401 -0.00061789027 -0.052432027 0.2803502 0.0673283 -0.013111992
0.08377807 -0.010877667 -0.08143804 0.12631953 -0.14591509 0.23636246 -0.10052543 -0.037029862
-0.30045205 -0.07865752 0.11847098 -0.10058092 0.13628733 -0.01738669 -0.1575662 0.0080521945
-0.062616736 -0.027626649 -0.052078314 0.016612055 -0.060697354 -0.06926589 0.12903915 -0.058533017
-0.20071617 0.005089878 -0.10975229 0.009842687 -0.05463275 0.18735473 -0.14737168 -0.08962987
0.12815864 0.14552146 -0.2265456 0.10467556 -0.0036545405 0.1139031 -0.21773925 -0.039049078
-0.06720235 -0.15186854 -0.023614176 0.26768258 -0.08196007 0.0902592 -0.026838774 0.13560967
0.13844696 -0.02326928 0.04087435 0.031295154 0.104907505 -0.12381259 0.16242918 0.01500046
-0.06778187 0.12445677 -0.30451608 -0.19792637 0.09051972 0.05976538 0.04740738 -0.41739282
-0.048532218 -0.07188125 -0.09068308 -0.04604196 -0.07424941 0.17606875 0.013960441 -0.100275435
-0.08321098 0.12344709 0.075734444 -0.11438083 -0.03428879 -0.21025471 -0.18149363 -0.1334628
-0.09337326 0.0062653534 -0.039386503 0.09270205 -0.07595153 0.22927406 -0.10943527 -0.07610121
-0.07684658 -0.10144524 0.19430624 -0.05168449 -0.15082261 0.050101247 -0.049624927 -0.12996635
0.009105571 -0.12497666 -0.03131415 0.16714719 0.008036661 0.061444353 -0.21123536 0.00887883
0.14264481 -0.039282084 0.09019678 -0.11815303 0.15772831 0.07213184 -0.22406034 -0.019227663
-0.15010662 0.25874773 0.050292447 -0.22849157 -0.1693416 -0.042080503 -0.28197944 0.0031736267
-0.10122167 0.20703563 0.09892003 -0.09986466 -0.19893523 0.18915491 -0.07911324 -0.03560982
-0.11286465 -0.0091633815 -0.06760678 0.025231775 0.14847974 -0.105933994 0.2580943 -0.08516847
0.33117342 -0.3287029 -0.1144526 -0.06937534 -0.022221364 -0.0002904624 0.13145272 0.0033376543
-0.091922335 -0.17069048 -0.04499495 0.05276203 -0.25912723 -0.13148288 -0.020557335 0.067528434
0.024013776 -0.0712971 0.09614273 0.08059949 0.019115023 -0.19601573 0.11806555 0.018662198
0.02086814 -0.10311997 0.08789605 -0.19486275 0.044838864 -0.17448387 -0.08891929 -0.07023561
0.042858202 0.059294835 -0.09230123 -0.029674685 -0.094364844 0.03014663 -0.0059013367 -0.08910329
0.027145268 -0.12569946 -0.008386613 -0.074523926 0.08522566 -0.018056951 -0.19671732 0.070648566
0.08832866 0.0445175 0.22652958 -0.18339159 0.102115124 -0.2424625 -0.05907108 -0.042101774
0.03808224 -0.1063204 0.12202846 0.10620622 -0.13571097 -0.09618085 0.18999171 0.0077380207
-0.07323185 -0.029672142 0.09150719 -0.013386078 0.014436736 -0.0041887104 0.08884289 0.03494627
-0.047301438 -0.017702416 -0.13421303 -0.0059803585 0.10032215 -0.10603999 -0.19622396 0.1591601
-0.13522217 -0.039248753 -0.313064 0.068891495 -0.17467967 0.0891183 0.07715112 -0.0629697
00000000: 8986 5dbc 1cce fb3d 3010 3e3d c4ca 333e
00000010: 8d63 413e 08fd 0e3a ff2e 7dbb 1aae 13be
00000020: 2425 843d 1175 883b 776c cabd 5499 ce3d
00000030: e301 3ebe 1550 be3d 0e31 61be 1fd7 f6bd
00000040: c9c9 b6bd d450 87be 9482 abbd 5c35 0bbd
00000050: d8fc 7bbc d721 b7bd 28e6 593e cd39 5d3c
00000060: b5f7 87be 06ad 0ebd f4e4 5a3e eaf9 21ba
00000070: f7c2 56bd 108a 8f3e 6be3 893d aed3 56bc
00000080: d693 ab3d 3e38 32bc fdc8 a6bd e859 013e
00000090: c46a 15be 0009 723e 47e0 cdbd a0ac 17bd
000000a0: dad4 99be 3217 a1bd eaa0 f23d 5ffd cdbd
000000b0: e88e 0b3e 886e 8ebc 0959 21be 5aed 033c
000000c0: 343d 80bd 4851 e2bc 1250 55bd 0116 883c
000000d0: ca9d 78bd 46db 8dbd d722 043e 51c0 6fbd
000000e0: 8a88 4dbe fec8 a63b cfc5 e0bd 3943 213c
000000f0: 97c6 5fbd ebd9 3f3e 9ae8 16be de8f b7bd
00000100: 053c 033e 9403 153e 92fb 67be 2460 d63d
00000110: 0481 6fbb 0746 e93d 0af7 5ebe edf1 1fbd
00000120: 63a1 89bd 6d83 1bbe 8472 c1bc b10d 893e
00000130: aeda a7bd d1d9 b83d fddc dbbc 43dd 0a3e
00000140: 0ac5 0d3e 389f bebc dd6b 273d 592f 003d
00000150: bfd9 d63d 7591 fdbd d653 263e 7dc4 753c
00000160: 39d1 8abd 31e3 fe3d 88e9 9bbe 36ad 4abe
00000170: 6762 b93d 8bcc 743d 3e2e 423d 83b4 d5be
00000180: b8c9 46bd 7a36 93bd 0db8 b9bd 7f96 3cbd
00000190: 1310 98bd 5e4b 343e 55ba 643c 355d cdbd
000001a0: 856a aabd d4d1 fc3d a91a 9b3d 7f40 eabd
000001b0: 6772 0cbd 034d 57be 77d9 39be 79aa 08be
000001c0: 7b3a bfbd 984d cd3b be53 21bd 93da bd3d
000001d0: 7a8c 9bbd d2c6 6a3e 991f e0bd f4da 9bbd
000001e0: bd61 9dbd 86c2 cfbd 37f8 463e 1eb3 53bd
000001f0: 3e71 1abe f736 4d3d 8243 4bbd e615 05be
00000200: 882f 153c c3f3 ffbd 4443 00bd a228 2b3e
00000210: 33ac 033c 13ad 7b3d 154e 58be 8378 113c
00000220: 7b11 123e 40e6 20bd 17b9 b83d 37fa f1bd
00000230: 8883 213e dcb9 933d 1370 65be 5583 9dbc
00000240: 8db5 19be 957a 843e 74ff 4d3d b2f9 69be
00000250: e267 2dbe 9b5c 2cbd 9c5f 90be 9ffc 4f3b
00000260: 4f4d cfbd 2601 543e 9696 ca3d d885 ccbd
00000270: adb5 4bbe d3b1 413e 1f06 a2bd 9adb 11bd
00000280: 9525 e7bd 0222 16bc 6c75 8abd deb2 ce3c
00000290: 130b 183e ecf3 d8bd f024 843e cf6c aebd
000002a0: 908f a93e bf4b a8be 2066 eabd a914 8ebd
000002b0: 9409 b6bc 3449 98b9 8b9b 063e 8cbc 5a3b
000002c0: c741 bcbd 7cc9 2ebe a04c 38bd 001d 583d
000002d0: 53ac 84be 73a3 06be db67 a8bc 594c 8a3d
000002e0: 8ab8 c43c 3704 92bd 7be6 c43d 5811 a53d
000002f0: 1c97 9c3c 59b8 48be 5acc f13d 77e1 983c
00000300: a9f3 aa3c 9030 d3bd d802 b43d 1a8a 47be
00000310: f5a8 373d e6ab 32be 511b b6bd b0d7 8fbd
00000320: 158c 2f3d 24df 723d 6d08 bdbd 5318 f3bc
00000330: 5b42 c1bd 11f6 f63c 0060 c1bb c97b b6bd
00000340: c15f de3c 5cb7 00be 0168 09bc 00a0 98bd
00000350: ca8a ae3d 2cec 93bc 4470 49be 32b0 903d
00000360: a8e5 b43d fb57 363d 5ff7 673e 01cb 3bbe
00000370: bc21 d13d 1748 78be 84f4 71bd e972 2cbd
00000380: 1ffc 1b3d 83be d9bd 0fea f93d a682 d93d
00000390: d1f7 0abe 77fa c4bd 308d 423e 398f fd3b
000003a0: 95fa 95bd fe12 f3bc 1f68 bb3d 4851 5bbc
000003b0: 0f88 6c3c 7341 89bb 43f3 b53d d223 0f3d
000003c0: 27bf 41bd a804 91bc 246f 09be e2f6 c3bb
000003d0: b375 cd3d 7f2b d9bd efee 48be defa 223e
000003e0: ae77 0abe 4dc3 20bd ed49 a0be fc16 8d3d
000003f0: 3adf 32be a883 b63d 6801 9e3d 42f6 80bd

fc2.bias f4 [64]
-0.046618085 -0.040998008 0.019680806 0.059575543 0.14796592 -0.16444209 -0.050549995 0.08674983
0.08815159 0.19821371 -0.04318711 0.16328138 0.052205015 -0.07758299 -0.040384766 0.0053044823
0.059842017 -0.047554586 -0.048762072 0.083905846 0.10853336 0.25647742 -0.16118379 -0.06465799
-0.10069303 -0.09164207 0.11987127 -0.09032741 -0.08205436 0.03697804 0.10599629 -0.08977672
-0.003528394 0.04911429 -0.017858796 -0.093214385 -0.09606663 -0.06321954 0.021780124 -0.0738488
-0.11200817 0.23578879 0.14275098 -0.04898902 0.030788476 -0.12693968 0.060459036 -0.11209246
0.056927852 -0.120472796 -0.09962316 0.21056491 -0.0049856454 -0.14086436 0.032196037 -0.1343292
-0.13208851 -0.12219509 -0.0095486315 -0.05615259 0.07692196 0.12636754 0.06413176 -0.1121797
00000000: 9bf2 3ebd 87ed 27bd a439 a13c 7c05 743d
00000010: 6184 173e 8263 28be 830d 4fbd e5a9 b13d
00000020: d288 b43d 89f8 4a3e f8e4 30bd 3c33 273e
00000030: edd4 553d d5e3 9ebd 7f6a 25bd 39d1 ad3b
00000040: e71c 753d 99c8 42bd bdba 47bd d4d6 ab3d
00000050: bd46 de3d 0251 833e 5d0d 25be 696b 84bd
00000060: 2638 cebd d6ae bbbd 127f f53d 94fd b8bd
00000070: 1e0c a8bd 4976 173d 9514 d93d dbdc b7bd
00000080: a13c 67bb 112c 493d 9c4c 92bc 2fe7 bebd
00000090: 95be c4bd 3f79 81bd 3b6c b23c 0a3e 97bd
000000a0: 8a64 e5bd 9e72 713e 502d 123e b6a8 48bd
000000b0: 1d38 fc3c 7afc 01be e5a3 773d bb90 e5bd
000000c0: 2e2d 693d 71ba f6bd 3a07 ccbd 549e 573e
000000d0: a05e a3bb bf3e 10be fedf 033d 988d 09be
000000e0: 3642 07be 6b41 fabd dd71 1cbc 4200 66bd
000000f0: 4389 9d3d 7e66 013e 8357 833d 78be e5bd

fc3.weight f4 [4, 64]
0.28870347 0.160905 0.29310173 -0.014945537 0.13084668 -0.12645887 0.24818324 -0.22805944
0.058386765 0.05181016 -0.1390427 0.15069336 -0.082770914 0.0032974589 0.059478305 -0.013977919
0.0414844 -0.2583197 -0.11824723 0.16838029 0.073147014 0.06393796 -0.032236308 -0.20517083
-0.16396381 -0.26137486 -0.31717286 -0.14149076 0.02653122 0.067026414 -0.27677763 0.10910355
0.32054254 0.072973825 0.050824925 -0.00016740386 0.26008844 -0.1356769 -0.08573935 0.21876065
-0.01531314 0.09645288 0.054048575 0.0114291515 0.15759604 -0.012068357 0.13762586 0.1615248
-0.0658476 0.23139644 0.233683 0.075550646 0.28889623 -0.08267166 0.07606383 -0.10036307
-0.15829012 -0.14300002 -0.0124100335 0.10987328 0.07676169 0.13928606 0.003981095 0.1954819
0.20278655 0.103625976 0.15446647 0.05220807 0.027299834 0.053185485 0.10916645 -0.022988603
0.0020614138 0.06461326 0.048587874 0.25484666 -0.0015214975 0.22905418 0.27866274 0.0446701
-0.029838588 0.26038864 -0.27573043 0.11575897 0.08032643 0.13563062 -0.08261564 0.052347984
0.014387953 -0.09064383 0.028749837 -0.18769492 -0.025730874 0.07222393 -0.04894886 0.17538571
0.03174843 -0.04182752 0.13717832 -0.05947222 0.23189102 -0.12953688 0.30206874 0.113842286
0.014644695 0.102925904 -0.008326663 0.33026192 0.30639663 -0.09493763 0.12043108 0.19882567
0.121570274 0.15406664 0.07821575 -0.012097789 0.23018196 0.053522836 0.13096537 0.020734534
-0.220978 -0.11839866 0.17019339 0.04657375 -0.12628871 -0.0002724402 0.02525619 0.02182864
0.24150138 0.16255179 0.240388 0.16346192 0.11577031 0.1552731 0.26785687 -0.045325164
0.027879259 0.069665655 -0.14842217 0.16222833 0.112380676 -0.33249468 -0.049378503 0.12369253
0.1286617 -0.06343185 0.18867005 0.07173448 0.089362495 0.15496024 -0.10500386 0.12890367
0.3873839 -0.18596864 -0.12665859 -0.18801685 0.09368966 0.19805458 -0.08360616 0.0016624638
-0.1247543 -0.13975745 0.275598 0.10073768 0.14365886 -0.15656988 -0.12626226 0.0074473144
-0.100693986 0.11804723 0.11573343 -0.13523613 0.02115635 0.020044742 0.12810124 0.39542893
0.13461632 0.12245849 -0.012438239 0.15930434 0.08047878 0.1223352 0.13983722 0.09167816
-0.28924805 -0.17113395 -0.022130935 0.038429342 -0.3894083 0.057127085 -0.41749924 0.10072991
0.09369312 0.26656124 0.08673056 0.02350247 0.014472193 -0.22010057 0.07594553 -0.019508267
0.056920193 0.14430201 -0.06613463 -0.17434768 0.23255536 -0.0620414 0.22429267 -0.038932234
0.14778657 0.2252952 -0.07491395 0.113603055 0.0145818265 0.17374218 -0.16390094 0.17298684
0.060233332 -0.29969543 -0.08201057 0.15466519 0.28719273 -0.1975031 -0.22152673 0.09976307
0.11943675 0.032523133 0.0293889 0.011406732 -0.074591145 -0.114102826 0.3177093 0.19911401
-0.3095035 0.1421583 0.100802876 -0.2818068 0.5212051 -0.14254011 0.094497435 -0.12874106
-0.009397556 -0.01946721 0.26258412 0.11175104 0.1299862 -0.13085397 0.09987128 0.18870789
-0.20314169 -0.15884978 -0.273559 -0.06975079 -0.24935293 0.045278396 0.009437794 0.19643022
00000000: f1d0 933e 48c4 243e 6e11 963e 20de 74bc
00000010: acfc 053e 6f7e 01be bf23 7e3e 6a88 69be
00000020: f626 6f3d e436 543d 3661 0ebe 5c4f 1a3e
00000030: cc83 a9bd 2e1a 583b 869f 733d a403 65bc
00000040: 8ceb 293d 7b42 84be 9b2b f2bd e26b 2c3e
00000050: 1ace 953d e8f1 823d 380a 04bd 4d18 52be
00000060: 21e6 27be edd2 85be 7b64 a2be f4e2 10be
00000070: 0058 d93c 2545 893d ccb5 8dbe af71 df3d
00000080: 271e a43e 4d73 953d cc2d 503d 2289 2fb9
00000090: 502a 853e e3ee 0abe 1d98 afbd cb02 603e
000000a0: f7e3 7abc 1689 c53d 0a62 5d3d 5641 3b3c
000000b0: db60 213e 5cba 45bc cbed 0c3e c266 253e
000000c0: 1bdb 86bd 30f3 6c3e 994a 6f3e 4cba 9a3d
000000d0: 35ea 933e c24f a9bd 5ac7 9b3d 278b cdbd
000000e0: ce16 22be 996e 12be 7453 4bbc 3e05 e13d
000000f0: 3c35 9d3d 01a1 0e3e d873 823b 682c 483e
00000100: 47a7 4f3e db39 d43d 752c 1e3e 21d8 553d
00000110: e7a3 df3c 06d9 593d a992 df3d 9852 bcbc
00000120: c918 073b f553 843d 1404 473d 437b 823e
00000130: fc6c c7ba 2e8d 6a3e e2ac 8e3e fff7 363d
00000140: 0e70 f4bc a951 853e 8a2c 8dbe 0a13 ed3d
00000150: 2f82 a43d c1e2 0a3e 6332 a9bd d76a 563d
00000160: 73bb 6b3c 79a3 b9bd c784 eb3c 1933 40be
00000170: 8ec9 d2bc 24ea 933d 9a7e 48bd 5098 333e
00000180: a40a 023d 5553 2bbd 7978 0c3e 2499 73bd
00000190: d774 6d3e 51a5 04be c1a8 9a3e 2526 e93d
000001a0: 4ef0 6f3c d1ca d23d 8e6c 08bc 1718 a93e
000001b0: 05e0 9c3e a96e c2bd 92a4 f63d f598 4b3e
000001c0: d6f9 f83d a5c3 1d3e 942f a03d ce35 46bc
000001d0: d2b4 6b3e c33a 5b3d c91b 063e 78db a93c
000001e0: 0f48 62be ff7a f2bd 2d47 2e3e 1ec4 3e3d
000001f0: d451 01be 4ed6 8eb9 12e6 ce3c fad1 b23c
00000200: 234c 773e fa73 263e 4628 763e 9062 273e
00000210: fc18 ed3d e9ff 1e3e 8924 893e e1a6 39bd
00000220: 0b63 e43c deac 8e3d fbfb 17be 2f1f 263e
00000230: d727 e63d be3c aabe 1d41 4abd 8252 fd3d
00000240: e5bf 033e 8fe8 81bd b932 413e 87e9 923d
00000250: af03 b73d e6ad 1e3e 440c d7bd 53ff 033e
00000260: 2f57 c63e 906e 3ebe cab2 01be 7d87 40be
00000270: 5de0 bf3d d2ce 4a3e b539 abbd 07e7 d93a
00000280: 2f7f ffbd 941c 0fbe 2e1b 8d3e 8f4f ce3d
00000290: 4f1b 133e db53 20be e54a 01be 9a08 f43b
000002a0: a638 cebd bfc2 f13d a605 ed3d 577b 0abe
000002b0: 1550 ad3c df34 a43c f92c 033e a975 ca3e
000002c0: dcd8 093e 84cb fa3d c1c9 4bbc ad20 233e
000002d0: 0fd2 a43d e18a fa3d 7d31 0f3e c2c1 bb3d
000002e0: 5218 94be bd3d 2fbe ef4b b5bc 1668 1d3d
000002f0: 8660 c7be 17fe 693d 76c2 d5be 7c4b ce3d
00000300: 2ee2 bf3d b77a 883e cb9f b13d 4188 c03c
00000310: c71c 6d3c 0b62 61be 5489 9b3d cdcf 9fbc
00000320: 2625 693d e8c3 133e 9871 87bd 3388 32be
00000330: fe22 6e3e 1f1f 7ebd faac 653e 6877 1fbd
00000340: 5d55 173e c9b3 663e 7c6c 99bd b8a8 e83d
00000350: 9de8 6e3c 78e9 313e a6d5 27be 7623 313e
00000360: 3ab7 763d ae71 99be 28f5 a7bd 8d60 1e3e
00000370: ed0a 933e 413e 4abe e7d7 62be 9550 cc3d
00000380: 419b f43d fa36 053d fec0 f03c 4de3 3a3c
00000390: 3ec3 98bd beae e9bd cbaa a23e 8be4 4b3e
000003a0: 3e77 9ebe f291 113e bd71 ce3d fb48 90be
000003b0: b36d 053f 09f6 11be df87 c13d b2d4 03be
000003c0: 35f8 19bc b379 9fbc 6d71 863e bbdd e43d
000003d0: 1a1b 053e 95fe 05be 5089 cc3d a43c 413e
000003e0: 6004 50be 84a9 22be ed0f 8cbe 81d9 8ebd
000003f0: 6056 7fbe d775 393d faa0 1a3c 0125 493e

fc3.bias f4 [4]
0.13371916 0.1437074 0.011730244 0.036226872
00000000: aded 083e 0828 133e 3630 403c a162 143d
